TNN_model.pth (torch, 83413 bytes, 19 tensors)

input_projection.weight f4 [32, 3]
00000000: 1345 a0be 7c75 ec3d 2d5d 183e eb54 d13e
00000010: 508a 283f 2107 0bbf 8f2c 9c3e 9054 983d
00000020: da41 d53c 83d1 9bbe 2416 e73e 0bea a4bd
00000030: 79f2 7bbe ff14 91be af08 013f ace6 bf3e
00000040: 0354 acbe 4dcd ecbe 92cc 91bb 58de 68be
00000050: d7c8 833e 8df7 80bd 2fd3 0e3e 4afa dcbe
00000060: 0b80 9c3e c61d f5bb 3f47 70be f108 13be
00000070: 9267 af3e 2de8 43bd 5e52 00bf 98c7 4d3e
00000080: 590f 56bc d2f5 723e f1cb 7f3e 05a9 1dbf
00000090: b959 8abe cdb8 033f db95 183e 4633 9d3e
000000a0: a12e 1cbd e856 57be cf88 b1bd e754 893d
000000b0: c72e c3be 0044 f2be 7194 d0be cdf6 a03e
000000c0: aaf0 853e 4018 cf3e 67a3 7cbe 040c 423e
000000d0: d5b7 a13e 37cc 583e 842b dbbe 90c1 b93e
000000e0: 05aa ec3e 159d 80be fa89 23bf 3899 dd3c
000000f0: 74e0 373e deb3 b83e e2ad aa3e 3b17 ccbd
00000100: 25bd 363e dfc1 4dbe efa4 a8be 9590 b93e
00000110: 25bc 9bbe 1986 a6be 25d6 823e d309 aa3e
00000120: 950f 9a3e 9fc3 c0be 4b94 973e fa26 003e
00000130: 7af3 2dbf 8188 1b3e c0d3 66be dc04 d0be
00000140: d984 35bf 0f2f 91bd cee4 133f e5a9 093f
00000150: 16a6 9b3e a264 d2be d580 c3bd 5b59 833d
00000160: 2c22 c3be faec d3be d8b6 c5bd 4579 723d
00000170: ef7d 073f e1ae 8abd ad89 253f ffc9 ad3e
-0.313027 0.11545846 0.14879294 0.408851 0.6583605 -0.5430775 0.30502746 0.07438004
0.026032377 -0.30433282 0.4513408 -0.08052453 -0.24604215 -0.2833633 0.50403875 0.37480676
-0.33657846 -0.46250382 -0.0044494355 -0.22741067 0.25739166 -0.062972166 0.13947748 -0.43159705
0.3056644 -0.007480356 -0.23464678 -0.1435888 0.34258705 -0.047828842 -0.5012568 0.2009567
-0.013065183 0.23726586 0.24980141 -0.6158603 -0.27021578 0.5145386 0.14900915 0.3070318
-0.038130406 -0.21029246 -0.08668672 0.06705647 -0.38121626 -0.47317505 -0.40738252 0.31438294
0.26160175 0.4044819 -0.24671708 0.18949896 0.31585565 0.21171652 -0.42806637 0.3628049
0.46223465 -0.25119844 -0.6388241 0.0270506 0.17956716 0.36074728 0.33335787 -0.09965368
0.1784559 -0.20093487 -0.32938334 0.3624312 -0.3041698 -0.32524183 0.25554004 0.3321062
0.30090013 -0.37649247 0.29605326 0.12514868 -0.6794964 0.15188791 -0.22541714 -0.40628707
-0.70905834 -0.07089054 0.57771003 0.53774863 0.3040015 -0.41092402 -0.09546057 0.064135276
-0.3811201 -0.41391736 -0.09654015 0.059197683 0.52926534 -0.06771637 0.646632 0.33943173

input_projection.bias f4 [32]
00000000: d455 3abf 4fbe 0f3f b82a 073f 5974 303e
00000010: 07a7 b0be 2a81 24bf 085c 273f 1f4b eabe
00000020: b649 e6be d7e9 a33e 21b3 d93e 9f0f e6be
00000030: e826 e3be 1cb4 d23d a9bd cd3e 9674 ba3e
00000040: 88d6 76be b036 f83e ffcb 8dbe 6fe8 cd3e
00000050: efbc 04be 0d67 cc3d c3ee 4a3d 8768 99be
00000060: 5a3f 8a3e bece 1b3d f86c 7a3e 9f5a 813e
00000070: 2287 1b3f 2f41 03be 24a0 2bbf e957 15be
-0.72787213 0.5614976 0.5279956 0.17231883 -0.34502432 -0.6425959 0.65374804 -0.45760438
-0.44978112 0.32014343 0.42519477 -0.44933793 -0.4436562 0.102882594 0.40183762 0.36417073
-0.24105275 0.48479223 -0.276947 0.40216395 -0.12962697 0.09980593 0.049544107 -0.2996256
0.27001458 0.03803896 0.24455631 0.2526445 0.6075307 -0.12817834 -0.6704123 -0.14584316

output_projection.weight f4 [1, 32]
00000000: 4158 7b3d 7f2e 1bbe 8de0 0e3e c657 083e
00000010: 2c6c 2a3e 8801 8dbd 46f4 91ba b679 85bd
00000020: 004d 273e ec7b 683e 8864 eebd c890 2cbe
00000030: aa1b 473e 1899 f73d 6f41 a6be 941f b4bd
00000040: 8663 9bbd 68e5 a03d 7f2a 363e d6ac 5cbe
00000050: 583d 623d 45d8 41bb 9bef f9bb 5242 ab3d
00000060: fe13 ae3d 68e6 56be 1659 9ebe 2115 a2bd
00000070: 4214 353e cbd0 c0bd 4130 f93c 3db9 13be
0.061363462 -0.15154456 0.13952847 0.13314733 0.16642827 -0.06885058 -0.0011135421 -0.06517355
0.16337967 0.22703522 -0.116402686 -0.16852105 0.19444147 0.12089747 -0.32471797 -0.087950855
-0.07587342 0.07856256 0.17789648 -0.21550307 0.055234283 -0.002957837 -0.00762744 0.08362259
0.08499907 -0.2098633 -0.30927342 -0.07914186 0.17683509 -0.09414824 0.030418517 -0.14426132

dec_layers.0.mlp_hidden.weight f4 [32, 32]
00000000: 010a 52bd 1aa0 9bbd df8a 50bd 9ce4 7cbd
00000010: 528e 8f3e 7d83 83bd 9fb4 8d3d 5770 05be
00000020: 49dd 5dbb 59df fbbd f030 8f3c ba51 a63c
00000030: bc91 d43d 8824 663e 1cf4 07be ee5c 8fbd
00000040: 17d5 0e3e 5044 4e3c 7934 823e 619b 8fbd
00000050: e6a2 433d 1fd6 e6bd e7cd 8cbe c8b4 4e3e
00000060: cdbd 11be 2e4a 813d 2b53 a1be b77f cbbd
00000070: 922d 2e3d 3d7c 94bd fa79 6c3e 9e20 4abe
00000080: 3ef5 ee3c 6e99 333d 03de 433c d9d7 ba3d
00000090: 76e7 b0bd cfe8 903e 40c2 55be c9a0 b93d
000000a0: 8623 393e 8b28 91bd b89c 93be 51e8 413e
000000b0: f6ff 443c f6a7 8dbc 6d86 f2bd 61c1 d8bd
000000c0: deba 81b9 b18a 20be bddd 043e 24ca 70bd
000000d0: d098 15be aa1b 853e 1de9 b9bb 3a6a 94bb
000000e0: 4a58 1f3e 5e1a 6bbe 6ca3 d93d a5bc 15be
000000f0: fa6d ac3a b4ea a93d 739b 8bbb 8bad 4dbb
00000100: c3ee a8bc 230b bc3d a7d8 40be 76c7 223e
00000110: 5461 56be 49c7 933e 3f80 2ebe dfcc 1e3e
00000120: 88b2 7e3c 3d7e 29bd 4cd6 543d 3998 7f3d
00000130: 54d9 c73c 8373 d5bd 9f29 86be c318 12be
00000140: 1f22 173e 6471 c93b 1d6a 973d 7ef2 86bc
00000150: 497e 10be 762c 553d 7d81 233d 44aa 8a3a
00000160: cc9c 9dbe cf57 c63b e25d d93d c710 2bbe
00000170: cb76 2b3e 97eb 9e3e 2af7 c0bd 9f38 1abd
00000180: 3038 72bd 1c52 6c3e faf2 b1bd 75a4 48bd
00000190: 41a5 64be 5392 693d e9d1 073e 4d4f 24bb
000001a0: af78 aabc 0d04 92be cc02 da3d 869d 32be
000001b0: c896 08be 63f1 0abc d3fb 923e 599b d03c
000001c0: 25e1 293e 5d3a 413d 2737 7dbe 5a78 aa3d
000001d0: f05d 8bbe 949b 82be ba86 dcbd 4a02 1c3d
000001e0: 10ec 0ebd 2925 813e 4bba 573e 0c36 c6bc
000001f0: fc60 b7bd d82d 95bd a732 e23d 590a 033d
00000200: 891e 783d 5114 263e 2a8f 35be 579e 38be
00000210: 01e6 dcbc 9ed3 423e b44e 363d b3dc 9d3d
00000220: 65ac f2bc 4e76 dbbd de7e fdbc 552d 6a3d
00000230: de45 86bd 29b0 5dbe fe42 b83d 87a5 0ebe
00000240: cbbb ac3d 302f a4bd 94f9 963c 9cf7 9bbd
00000250: c761 3c3e b1b4 06bd c055 c73d 48da 96be
00000260: 1215 373b 2092 1c3e fe8e 873e b4f6 39be
00000270: 7967 70bd 21f3 9c3d 39d1 433e c1fe 8c3d
00000280: 5f47 96be 53d6 503e ff09 383e 3c7d 2c3e
00000290: 4c7e 3bbe 03ae c53d 9487 073e 6eb9 ab3c
000002a0: 5220 95bc 1951 063d 1990 bf3d b613 133e
000002b0: 21ed 003d 115f 1fbe cd55 203e 1db0 d9bd
000002c0: d146 75bd 94cc 2b3e 56c2 7bbe 229e a13d
000002d0: 0d40 87be 863c 603e 2d0b 243e 3620 0dbe
000002e0: ebdf a7bd e612 3b3d 08e3 243e 026c bfbb
000002f0: d532 ab3d 8a94 503e b816 4ebe 3e8c 49be
00000300: 392d 253e 02c2 af3c 996c b1bd b9ee 06be
00000310: 3dbb 253e 7951 a83d 6ed4 f83d b054 d43d
00000320: f85c a8bc 629c 26be b91c 783d abb5 183e
00000330: 8f36 1e3d a7fd a4bb 715f 3f3e 01c6 723e
00000340: 139e 2f3e 2a93 ac3c 98af 0cbe 76ed 733d
00000350: eded aebd 284e 0ebd 15f5 cebc 4e12 bfbc
00000360: c6b9 8d3b 7ce5 7e3e 373c 533e 9f85 9dbd
00000370: c413 cebc 87a7 cabb 1491 4d3e 557e 3c3e
00000380: 58b0 27be 27ce 1c3e f278 bfbd 0a88 673e
00000390: 4016 54be ffd3 90bc 6e05 1cbd 3d13 1a3e
000003a0: 2205 c7bc 4516 693e ebcb aabd 9182 023d
000003b0: f2b2 e0bc 52df ccbd 4485 1fbc e8f3 003b
000003c0: 94e1 62be a171 1fbe 9da0 b33b 0b62 85be
000003d0: 0d5a d33c 651d 963e a5a8 933e ce69 40bd
000003e0: c6d7 123e 7866 3dbe ac1e 7e3e 9075 3ebe
000003f0: 72a1 913d f79c 6a3e 4538 84be f270 aebd
-0.05127907 -0.07598896 -0.050913688 -0.061741456 0.2803827 -0.06421564 0.06919216 -0.13031135
-0.003385382 -0.122984596 0.01747939 0.020302642 0.10379359 0.22474873 -0.13276714 -0.07000147
0.13948475 0.012589529 0.25430658 -0.07012058 0.047762774 -0.11271309 -0.2750084 0.2018615
-0.1423256 0.06312977 -0.31508765 -0.09936469 0.042523928 -0.07250259 0.23093405 -0.19739005
0.029169675 0.043847494 0.011954787 0.09123201 -0.08637898 0.2830262 -0.20874882 0.090638705
0.18079957 -0.07087811 -0.28830504 0.18936278 0.0120239165 -0.017292004 -0.11842046 -0.10583759
-0.00024744024 -0.15677907 0.12975211 -0.058786526 -0.14609075 0.25997669 -0.005673541 -0.0045292648
0.15561023 -0.22959277 0.106268734 -0.14622743 0.0013155334 0.08296719 -0.0042604744 -0.0031383957
-0.020621663 0.09181812 -0.18832646 0.15896401 -0.20935565 0.2886298 -0.1704111 0.1550784
0.015545495 -0.041380156 0.051962182 0.06240103 0.024395622 -0.10422423 -0.2620363 -0.14267258
0.1475911 0.0061475504 0.073932864 -0.016473051 -0.14110674 0.052044354 0.03991841 0.0010579308
-0.3078369 0.006052948 0.1061361 -0.16705619 0.16744535 0.31039116 -0.09422143 -0.037651654
-0.059135616 0.23078197 -0.08688922 -0.048984963 -0.22328664 0.05702431 0.13263668 -0.002507168
-0.0208095 -0.28518716 0.10645065 -0.17442903 -0.13338768 -0.008480403 0.28707752 0.0254647
0.16589792 0.0471748 -0.2472807 0.083237365 -0.27220106 -0.25509322 -0.107678846 0.03808812
-0.034893095 0.25223663 0.21067159 -0.024195693 -0.08954045 -0.072841346 0.110448174 0.03199229
0.060575996 0.16218688 -0.17730394 -0.18029152 -0.026965143 0.19026038 0.04450865 0.07708111
-0.02962322 -0.10715924 -0.030944284 0.05717214 -0.06556295 -0.21649231 0.08997153 -0.13930331
0.08434256 -0.08016813 0.018429555 -0.07615587 0.18396674 -0.032887165 0.097331524 -0.2946341
0.0027936143 0.15290117 0.26476282 -0.18160516 -0.05869243 0.07663561 0.19122781 0.06884528
-0.29351327 0.20394258 0.17972563 0.16844648 -0.18309897 0.09652331 0.13235313 0.020962443
-0.018203888 0.032792185 0.09353656 0.14362988 0.031476144 -0.15563609 0.1565773 -0.10629294
-0.05988199 0.16777259 -0.24585852 0.078914896 -0.26416054 0.21898088 0.16019888 -0.13781819
-0.08197006 0.04567232 0.1610223 -0.005841733 0.08359305 0.20369163 -0.20125854 -0.19682404
0.16130532 0.021454815 -0.086632915 -0.13177003 0.16184707 0.08218665 0.12149893 0.10367715
-0.020552143 -0.16270593 0.060574267 0.14913051 0.03862625 -0.0050351205 0.18688752 0.23708345
0.17150144 0.021066267 -0.13738859 0.059552632 -0.085414745 -0.034742504 -0.025263349 -0.023324158
0.0043251244 0.24892229 0.20628439 -0.07691502 -0.02515591 -0.0061845216 0.20074874 0.18407567
-0.16375864 0.15313016 -0.0934924 0.22610489 -0.20711613 -0.017679213 -0.038091116 0.15046401
-0.02429444 0.22762401 -0.083396755 0.0318628 -0.027429078 -0.100035325 -0.009736363 0.001967663
-0.22156364 -0.1557069 0.005481793 -0.26051363 0.025799775 0.293193 0.28839603 -0.046975903
0.14340124 -0.1849612 0.24816388 -0.18599534 0.071108714 0.2291144 -0.2582418 -0.08517636

dec_layers.0.mlp_hidden.bias f4 [32]
00000000: b0ca 773e 5888 3abe 23e7 d8bc 9099 0b3c
00000010: b238 d3bd ec69 ce3d 2c0d 4dbe a3da 07be
00000020: d3fa cf3c 7c8e dabd bf06 e6bd ab1d ba3d
00000030: 988e a63c 1664 6c3e 5ff0 8b3e 0781 b9bd
00000040: 0b53 073e 11f4 e33c 861b 5abd 10d3 0d3d
00000050: 27b1 aabc 9981 bebd 336b 5c3e 0dab 273e
00000060: 2a56 f1bb f8bf c73d 3ee8 11be 9b8c fc3c
00000070: 4f71 943e 5c09 503c 539d 00bb f0e4 0bbe
0.24198413 -0.18216074 -0.026477402 0.008520499 -0.10313548 0.10078797 -0.20024556 -0.13266997
0.025388157 -0.10671708 -0.112317555 0.0908769 0.020331666 0.23085055 0.27331826 -0.09057813
0.13215272 0.02782634 -0.053248905 0.034625113 -0.020836426 -0.093020625 0.21525268 0.16373844
-0.007365008 0.09753412 -0.1424875 0.030828765 0.28992698 0.012697544 -0.0019625023 -0.13661551

dec_layers.0.mlp_out.weight f4 [32, 32]
00000000: 2be2 babd 9d05 f63c 1c29 923c dd8e 5dbe
00000010: c71b 063e 692e 86be 639b e2bd 0a47 d1bc
00000020: 6ba7 363c 4964 553e c5f1 40bd 64a6 5bbe
00000030: 6afe 8bbe e6fe 13be 857d 76bd d4ce 65be
00000040: 0d25 03be 39ca 53bd 11c4 7cbe acf1 e8bc
00000050: 8aa0 10be 9fcd 063e d44f 8abe e80f 47bd
00000060: 5d85 77be 47e8 933c 602e 61bd 2a5f 1fbe
00000070: 267b 7ebe 8f59 723c 461f 9bbe 110c 16be
00000080: 7336 33be a4e0 b2bd 0795 aa3c b086 6e3e
00000090: 3680 0b3e ca1c 8f3e 0c53 18be 2c56 2a3d
000000a0: 2bb8 e93d b885 8abc 823e 33be 4ce9 6c3e
000000b0: ea32 8b3e cf27 e2bc 0e3e 00bd 32df 3ebe
000000c0: 45f7 a63d be7e cdbd be6f 553e 4a3e 78bd
000000d0: d986 1cbe a92e 3e3e 551e 723e 2059 f9bd
000000e0: 8045 7b3d 7c70 033e 92fb b23c e830 e2bb
000000f0: 2392 b43d bba7 ccbd be5a be3d b36e a33e
00000100: dbc0 a23e 8232 9b3e 5fb4 90bc 6492 80bc
00000110: c5d8 98bd 7ac8 c3bc a8a4 67be 1fb3 1e3e
00000120: ca99 6abe 9f0f b63c fa29 ff3c 8932 2bbd
00000130: 5fd6 0ebc 71a4 013e f2ef fe3d c33c db3d
00000140: 0224 fa3d f8d7 273e e034 2d3d 2246 553e
00000150: ea01 fa3d c3d6 eabc c851 c63d faa0 913e
00000160: 9d4c 853e b5b8 76bd c4cf 273d e296 233d
00000170: 19a2 003e c78a 9a3e 3c75 86bc 2857 ddbd
00000180: 4405 3d3e 9b01 bd3c 042d 9b3e 73fc 923d
00000190: 18a8 1cbc eb8d 58bb 4124 1cbe 283e 2ebe
000001a0: 2e3f 90be e84b 4d3d 3831 9a3d 0767 8abd
000001b0: 6fe5 013e 6caf 603e 315f a03c 4897 8d3d
000001c0: 173f 713d 7dcf 39bc e2d0 293d 949b c63d
000001d0: 040e 0abd dd4d 00bd c834 463e b211 553e
000001e0: eec2 ca3d 982e 32bd 7116 993e a267 91be
000001f0: ad23 313e ba51 8b3e ad75 953d 639e ccbd
00000200: ea37 1a3e badb 993e cc9d 993e 4ff6 dfbc
00000210: e29d 33bd 6c70 a13c 0d26 fdbd c892 a0bd
00000220: 71a8 49be 9372 183c c2fc 20bd d8cf 033d
00000230: 8e45 713e adfb 833d 9bbb cb3d fa37 6fbe
00000240: 20fe e7bc d351 853e c7f1 1bbe d039 88be
00000250: 0b19 80be 83a7 48be b101 93bd d40b cb3d
00000260: e17c e43c f2f7 07bc 5d66 b5bc 2249 c13c
00000270: a1de 59be 5856 763c 1e68 cfbd 10bf e23d
00000280: 659a 193e 3b5b a33d a5ca 37be 8778 dbbd
00000290: 8860 113c cfd6 8dbe 5369 7cbd b560 af3c
000002a0: a41f ecbc 3d21 b8bb 5d56 8cbe c35d 1dbe
000002b0: 497e 583d 551d 4f3d 4398 17be d1e8 ffbd
000002c0: 6948 83bd 26f8 e5bc 70fd 763d 3de5 c6bd
000002d0: d7eb 7e3d eb22 753e 45cf 8ebe 5748 76bc
000002e0: 40ce 54be b68a 77be ee13 273e f31c 4bbe
000002f0: 73c6 9ebc 5239 b83d 6f1b 89be 45fd a7be
00000300: 008f 7ebd 5d7c 09be e7b5 32bc 1cb5 573e
00000310: 9ff4 7bbe 3dfb 453e 43ba 7f3e 68a2 8a3e
00000320: 7fac 683e 60a4 193b 8cfc 5d3e 8f34 8a3e
00000330: a903 22be 0d55 4dbe c7fa 1b3e 8d82 b43c
00000340: 01c1 6c3e a34c 24be f5fd c03d c992 eabc
00000350: 399d 273e b4b8 3cbe b301 813c 9673 5cbd
00000360: 2f18 2b3e d506 143e d90f 3ebd 44f7 413e
00000370: 952e 7f3e ac2b 96be bc79 14be 4f41 7f3e
00000380: 055f 653d 8218 efbc 0f74 553c 5d20 83be
00000390: 6bae 2e3e adf8 92be 3294 063e 8dcb 12be
000003a0: bbea d3bd a66d 00be a0e3 20be 40a7 8ebe
000003b0: 6f8d 263e 0e5f 8fbd 5a89 773c d819 783c
000003c0: 5d40 37be 12e5 e73d 7cb0 2bbe b9a8 d93b
000003d0: c67d 65be d6f7 22be e618 803d 54b9 c43d
000003e0: 70ce 9abd 7651 083c 9f9c 0d3e 7b4c 7bbe
000003f0: 3dc9 013d 81f1 bc3c 7941 02be c358 13be
-0.09125169 0.030031973 0.017841868 -0.2163653 0.13096534 -0.26207283 -0.11064794 -0.02554657
0.011148314 0.20839037 -0.04710557 -0.21450192 -0.2734254 -0.14452705 -0.0601783 -0.2244218
-0.12807103 -0.051706526 -0.24684168 -0.02843555 -0.14123741 0.13164376 -0.2701403 -0.048599154
-0.24171968 0.018055094 -0.054975867 -0.15563646 -0.24851665 0.01479186 -0.30297297 -0.1465304
-0.1750124 -0.08734253 0.020823015 0.23293567 0.13623127 0.27951652 -0.1487543 0.041586086
0.114120804 -0.016909465 -0.17504314 0.2313587 0.27187282 -0.027606873 -0.03130918 -0.1863983
0.08152632 -0.1003394 0.20843408 -0.06060628 -0.15285815 0.18572487 0.23644383 -0.12175202
0.061345577 0.12835878 0.021848474 -0.0069028027 0.08816936 -0.099929295 0.092946514 0.31920394
0.31787762 0.30311972 -0.017664133 -0.015694804 -0.074632205 -0.023899306 -0.22621405 0.15498017
-0.22910228 0.022224246 0.031147946 -0.04179624 -0.008718102 0.12660386 0.1244811 0.10704949
0.12213899 0.1639098 0.042286754 0.20827535 0.12207396 -0.02866686 0.09683567 0.28443128
0.26035014 -0.060234744 0.040969625 0.039938815 0.12561835 0.30184004 -0.016413324 -0.10807639
0.1845904 0.023072055 0.30307782 0.07177057 -0.009561561 -0.0033043574 -0.15248205 -0.17015898
-0.28173202 0.050121218 0.07528919 -0.06757932 0.12685178 0.21941918 0.01957664 0.0691362
0.058898058 -0.011340973 0.04145897 0.09697643 -0.033704773 -0.031324256 0.19356072 0.20807531
0.09900461 -0.043501467 0.29899934 -0.28399378 0.17298765 0.2721079 0.072978355 -0.09991147
0.15060392 0.3005045 0.30003202 -0.027339129 -0.04385174 0.019706927 -0.12360773 -0.07840496
-0.19693162 0.00930466 -0.03930355 0.032180637 0.2356169 0.06444488 0.09947892 -0.23361197
-0.028319418 0.2603899 -0.1522895 -0.26606607 -0.25019106 -0.1959515 -0.07178057 0.099143654
0.027891578 -0.008298861 -0.022143537 0.023594443 -0.21276332 0.015035234 -0.10127281 0.110715985
0.15000303 0.07976385 -0.17948397 -0.10716348 0.0088731125 -0.27702948 -0.061623883 0.021408418
-0.028823681 -0.0056191967 -0.2740964 -0.15367799 0.05285481 0.050565083 -0.14804177 -0.12495578
-0.064102955 -0.028072428 0.06030029 -0.097116925 0.062236633 0.23939101 -0.2789251 -0.015031896
-0.20781803 -0.24174008 0.16316196 -0.19835262 -0.019381737 0.08995308 -0.26778743 -0.32810417
-0.062148094 -0.13426347 -0.010907627 0.21065181 -0.24605034 0.19334121 0.24973397 0.2707703
0.22722052 0.0023443922 0.2167837 0.26993224 -0.15821709 -0.20051976 0.15232383 0.022034908
0.231205 -0.1604486 0.094234385 -0.028634446 0.1636857 -0.18429834 0.01574788 -0.05382117
0.16708444 0.14455731 -0.046401832 0.1894198 0.24920113 -0.29330194 -0.14499563 0.24927257
0.05599882 -0.02918649 0.013028159 -0.2561063 0.17058723 -0.2870535 0.1314247 -0.14335461
-0.10347506 -0.12541828 -0.15711832 -0.27861977 0.1626489 -0.07000552 0.015108431 0.01514288
-0.17895646 0.113229886 -0.16766542 0.0066424278 -0.2241126 -0.15914854 0.06254749 0.09605661
-0.07558906 0.008320203 0.13829277 -0.24540894 0.031686056 0.023064377 -0.12720288 -0.14389329

dec_layers.0.mlp_out.bias f4 [32]
00000000: 1a16 89be 8e4b 6cbd 003c d43b 5cee 143e
00000010: fff9 88be 7f3c 91be ecf8 043e 9333 b3bc
00000020: 95a1 393d 1747 21bd c392 fa3d d5a4 1abe
00000030: 0ffb 913e 0224 10be 06f4 97be 8250 df3d
00000040: 99a8 75be 46f8 e5bc 992d 17bd 10b5 e7bd
00000050: 8dd7 9fbe 3159 6d3e 8249 f03c 7dc8 313e
00000060: 590b 583e 8bab 59be 5328 08be 413f 1ebd
00000070: 5ec0 143e f4f6 db3d 23e8 85be fbaf 5abe
-0.26774675 -0.057689242 0.006476879 0.14544052 -0.26753232 -0.28366467 0.12985581 -0.021875178
0.045320112 -0.039374437 0.12235024 -0.15101941 0.28511855 -0.14076236 -0.29678363 0.109040275
-0.23990096 -0.028072488 -0.03690872 -0.11313832 -0.3121914 0.23178555 0.029331926 0.17361636
0.21098079 -0.21256845 -0.13296632 -0.038634542 0.14526507 0.10740462 -0.2615367 -0.21356194

dec_layers.0.layernorm1.weight f4 [32]
00000000: 442a 943f 21b5 913f 7a3b 683f f176 5f3f
00000010: 6249 913f 62af 903f 05fa 5b3f 7276 8d3f
00000020: d4c0 6e3f 4f83 5c3f ec2d 803f d2af 8f3f
00000030: c025 883f 3edb 923f 75a0 913f e982 833f
00000040: fd55 863f 3dd1 903f 4aa4 913f f70c 823f
00000050: f377 5b3f 62e1 5a3f 3816 5b3f 66d3 643f
00000060: b671 613f f03b 5b3f 8339 923f 203e 8e3f
00000070: 5e2f 5c3f 2206 5e3f 6410 853f 5bec 5a3f
1.1575398 1.1383401 0.90715754 0.87290865 1.135052 1.1303523 0.85928375 1.1051772
0.9326298 0.8613786 1.0014014 1.1225531 1.063652 1.1473157 1.1377093 1.0274326
1.0494992 1.1313854 1.1378262 1.0160207 0.85729903 0.85500157 0.8558078 0.8938507
0.88064134 0.8563833 1.1423801 1.1112709 0.86009777 0.8672811 1.0395627 0.855169

dec_layers.0.layernorm1.bias f4 [32]
00000000: 0e3d 1cbe 9c44 07bd fed4 103e e329 0e3e
00000010: d8da c2bd ddd7 0fbe bbf6 e63d afc2 00be
00000020: 8cf9 fa3d b4ae 0a3e bc5d 0d3e 076e c7bd
00000030: 8812 cf3b 1277 e7bd 78bc 09be 2a48 c63d
00000040: f3d9 10be 47bf 003e c978 883b 67ac 00be
00000050: 8ec8 09be 9296 0f3e 4873 0b3e e08f 463d
00000060: 828b ba3d ea51 07be d552 f8bd f70b e63d
00000070: 2a68 0b3e 01ca bfbd b46b 12be c4aa f3bd
-0.15257666 -0.033024415 0.1414375 0.13883166 -0.095143974 -0.14047189 0.11277529 -0.12574266
0.122546285 0.13543206 0.13805288 -0.09737783 0.006319348 -0.11302008 -0.13450801 0.09681733
-0.14145641 0.12572967 0.0041647893 -0.12565766 -0.13455412 0.14022282 0.13618195 0.048477054
0.0910864 -0.13214841 -0.12125174 0.11232751 0.13613954 -0.09364701 -0.14298898 -0.11897805

dec_layers.0.layernorm2.weight f4 [32]
00000000: 8fec 5d3f 341e 8f3f 9e07 843f 28bb 823f
00000010: 14ae 933f d3e1 5b3f beec 5d3f 05be 5c3f
00000020: 80dc 873f 7705 863f 9cf2 6b3f a796 913f
00000030: 6552 933f 647a 6b3f d654 933f 4ddc 5f3f
00000040: 6077 653f 70ee 5b3f e9cc 8f3f a925 843f
00000050: 9fa1 5f3f ed7a 5d3f 1d1c 5d3f 56af 5d3f
00000060: 9a10 5e3f 3da9 833f 8294 933f d2a0 5e3f
00000070: 7030 863f e6b5 5d3f a98e 5c3f a523 613f
0.86689085 1.1181092 1.0314825 1.0213366 1.15375 0.85891455 0.86689365 0.86227447
1.0614166 1.0470418 0.9216707 1.13741 1.150952 0.9198363 1.1510265 0.8744553
0.89635277 0.859107 1.1234409 1.0323993 0.8735599 0.86515695 0.8637102 0.86595666
0.8674408 1.0286022 1.1529696 0.8696414 1.0483532 0.8660568 0.8615518 0.87945014

dec_layers.0.layernorm2.bias f4 [32]
00000000: f554 fbbd f335 0fbe 18f1 0b3e e60a 0d3e
00000010: 289a 103e 5a8f a23d 87ac 0dbe 1a5d 003e
00000020: 9dce 113e b53d 103e 329c 15be bfb1 10be
00000030: e791 113e 77c9 ab3d 95df 10be db30 0fbe
00000040: e77a 0cbe f147 01be 92f6 0f3e d072 10be
00000050: 55aa 06be bc7a 0d3e 12bc 0d3e d2a5 03be
00000060: dede 01be c302 10be 5f0d 11be 266c 10be
00000070: 1f40 103e 7bc7 8f3d afef 0cbe 69b8 0fbe
-0.12272064 -0.13985424 0.13666189 0.13773689 0.14121306 0.079374984 -0.13835345 0.12535515
0.14238973 0.1408604 -0.14610365 -0.14130305 0.14215814 0.08388036 -0.1414779 -0.1398348
-0.13718759 -0.126251 0.14058903 -0.14106297 -0.13150914 0.1381635 0.13841274 -0.12856224
-0.12682673 -0.14063554 -0.14165257 -0.14103755 0.1408696 0.0702047 -0.13763307 -0.1403519

dec_layers.0.mha.wq.weight f4 [128, 32]
00000000: 527e c63c 51fc c9bd be92 c8bd 5d89 b7bd
00000010: a547 913e 8a53 89be dd21 8d3c acc0 80be
00000020: 33ee 78be 6735 9d3c 5f7d 83be 7149 ef3b
00000030: abd8 1fbd b462 97be 9f76 87bd a6ee 30bd
00000040: 3cab 3d3d 28c4 8a3e 55d0 733e 2ff6 093e
00000050: 7031 8a3e 1521 49be ff4e 4cbe 43c6 083e
00000060: fafb e53d 456d 503b 8072 80be ba07 8e3e
00000070: e66a cfbc 42a4 66be f559 6e3e efe6 293e
00000080: a219 57be 3d3a 2f3e e4a2 96bd 2dce 50be
00000090: 698a 66be 5ba6 263e a542 b7bd 58df a33d
000000a0: 30cb a53d 1e57 57be a1d3 27bd c2e6 833e
000000b0: 06b9 b53b cc30 593e f0c5 8e3e fa9f 82be
000000c0: 6088 ecbc f78a 0dbe 70ba 79be 1389 10be
000000d0: 236a 6bbe 58fc 0a3a dea8 e1bc bc00 a0bd
000000e0: 3f0b 073d af55 a1bc 936f 4ebb 669a 37bc
000000f0: 67f3 9f3a 07cd 703b 02e5 bb3c 80ae 0cbe
00000100: c496 b8bd e77b 633e 845b ea3d 7b19 933e
00000110: 30e5 a0bc 3406 b03c 93fa cc3d 245c d43d
00000120: 7adc 12be c5f2 933e c476 863e 872d 2ebe
00000130: ff7b 833e 4d10 3dbe 6690 493d e5d6 213e
00000140: b41e 0abe 8eb6 e33d 2cf8 173d 5117 cabc
00000150: 8394 88bc 9b52 963d af71 50bd 0fbe 8d3e
00000160: ca89 783e a7bc 89bd 1e11 803e 6dec 913e
00000170: 24f1 843e f22d 98bd 67cc 73bd 7fa9 a23d
00000180: 7df9 6c3e 4beb 3cbe 5130 6fbe 4507 1abe
00000190: 505b 183e 653f 843b 56e0 003e c45d b8bc
000001a0: 892c 74be fe56 85be ae47 53bc 8237 54be
000001b0: cac8 80be b3bc 54bd 00b0 08be 3c36 1abc
000001c0: 85d2 163e c9b8 34bd 5c29 82bd 9863 ad3d
000001d0: c564 42bc 5e5b 7bbe d7ce 97be 2545 d83d
000001e0: cd62 063e 17e0 a33e 116f 89be 0ed5 af3c
000001f0: af84 87bd c993 56bc c5b0 8f3e 7648 203e
00000200: f2eb 58be e16c 993d ecf6 943e 0ad2 7a3e
00000210: b24b 79be 8b57 07be de86 dd3c 1c92 8ebe
00000220: a3aa 61be 358b 6a3e 342a 9a3e 77ff c13c
00000230: 6965 453d 39ea 053e b135 053e bd0a 093e
00000240: 4018 8abc 79a7 703e 810f 133d e47b 1a3e
00000250: 4fd1 0cbe a076 863e 0af9 14bd cacc 093d
00000260: f9bf 8a3e a4fd 833e 5510 803e e8aa ac3d
00000270: edf5 08bd 0233 203d 7fe0 8abb a1ae bc3d
00000280: 3e58 9bbd f6d8 783e c388 7b3e 2603 3fbd
00000290: 00f8 08be dc0c 3e3c 5fe3 1f3e 3601 4e3e
000002a0: 3f4d 25be 4db5 903e d3aa 523e d050 f73d
000002b0: 1ec0 5b3d e927 9e3c 83de 7b3e c55d 5cbd
000002c0: 7f52 683b 5348 803e 8b3f 8ebe a755 333e
000002d0: f12b 36bd 5e62 8c3e ff4e e13d 105f a1bd
000002e0: 4eea f63c b780 89be cd38 5d3e b7e9 2dbc
000002f0: 914e 773c 104d e93d 62b4 8fbd 90a6 89bd
00000300: 09bf 3c3e 46f4 9b3e 4dce 03be 9497 543b
00000310: 9c11 abbd 6e64 a13c f9d7 8fbe a301 2a3d
00000320: c63a 843c bb19 61be 7847 a03c 970c e33c
00000330: aa20 2cbd f4b3 633e 3cd2 cfbd 23a4 edbd
00000340: 27ee a03e 6069 82bd 5a86 3dbd e230 4bbe
00000350: 7ebd c5bc b5b9 86bc c2ed 3c3d 8975 81be
00000360: f35b a2bd ef79 593c 63d0 d43b 9ff1 d23b
00000370: b504 053d f4aa 163e 419b 35be 376b 5bbd
00000380: f68c 22be 2f1d 693e 3164 c53d 3c33 58bd
00000390: 1374 78be 0143 233e 3da6 613e 77cd 5d3e
000003a0: d5f3 51be 1e7e 883e 77c3 1f3e 2612 273b
000003b0: bbad 4ebd 1b1a cd3c 9abf e43d 197c 8d3d
000003c0: 01a7 f6bc 8fa3 583e 4fb3 1ebc f4a3 633e
000003d0: b7ea d13d dcfd ac3d 8be0 ef3d d671 483d
000003e0: 5e0c d43d b143 563d 9334 bd3d b053 333e
000003f0: bcea d23d 5680 f03d 70b7 94be e191 173c
0.024230156 -0.09862579 -0.09793614 -0.08961747 0.28374973 -0.26821548 0.017228061 -0.25146997
-0.24309616 0.019190503 -0.25681588 0.007302456 -0.03902499 -0.29567492 -0.06614422 -0.043196343
0.04630588 0.2710278 0.23809941 0.13472818 0.26990843 -0.19641526 -0.1995201 0.13356881
0.11229701 0.003180341 -0.25087357 0.2774027 -0.025319528 -0.22523597 0.23276503 0.16592
-0.21005872 0.1711206 -0.07355288 -0.2039115 -0.22513737 0.16274397 -0.08948258 0.08001584
0.080953956 -0.21029326 -0.04097331 0.25761992 0.005545738 0.21210021 0.2788539 -0.25512677
-0.028873622 -0.13822542 -0.24387527 -0.1411479 -0.22989707 0.00053018844 -0.027546342 -0.0781264
0.03296971 -0.019694177 -0.003149961 -0.011206245 0.0012203277 0.00367433 0.022936348 -0.13738441
-0.09013131 0.22215234 0.114432365 0.28730378 -0.019640535 0.021487333 0.10008731 0.10369137
-0.14341918 0.28896156 0.26262486 -0.17009555 0.2568054 -0.1846325 0.049209975 0.15804632
-0.13488275 0.11118804 0.03710191 -0.024669321 -0.016672378 0.073399745 -0.050889667 0.27684066
0.24271312 -0.06725436 0.2501306 0.2850069 0.25965226 -0.074306384 -0.059521105 0.07942485
0.23142047 -0.18449132 -0.23358275 -0.15041836 0.14878583 0.0040358775 0.12585577 -0.022505648
-0.23845114 -0.26042932 -0.012895508 -0.207243 -0.2515319 -0.05193777 -0.13348389 -0.009412345
0.14728744 -0.044121537 -0.06355545 0.084662616 -0.011864846 -0.24546573 -0.29649994 0.10560063
0.13123627 0.32006904 -0.2684255 0.021463897 -0.06617104 -0.013096758 0.28064552 0.15652642
-0.21183756 0.0749147 0.29094636 0.24494186 -0.24345282 -0.13216989 0.027041849 -0.27845848
-0.22037749 0.22904666 0.30110323 0.023681385 0.048192415 0.1307763 0.13008763 0.13383003
-0.016857266 0.23501386 0.035903458 0.15086323 -0.1375172 0.2626238 -0.036370315 0.033642568
0.2709959 0.2577945 0.2501246 0.08431035 -0.033437658 0.039111145 -0.004238188 0.09212995
-0.0758519 0.24301514 0.24563889 -0.046633862 -0.13375854 0.011599746 0.15614079 0.2011765
-0.16142748 0.28263322 0.20572977 0.12075961 0.053650014 0.01930614 0.245966 -0.053800363
0.0035449562 0.2505518 -0.27782854 0.17513143 -0.0444755 0.27418798 0.110013954 -0.0787946
0.030141022 -0.26856014 0.21603699 -0.010614804 0.015094415 0.11391652 -0.07016827 -0.067212224
0.18432249 0.30459803 -0.12871666 0.003243898 -0.08352968 0.019701209 -0.28094462 0.041505467
0.016141307 -0.21982472 0.019565329 0.027715964 -0.04202334 0.22236615 -0.10147521 -0.11603572
0.31431696 -0.06367755 -0.046270706 -0.19842866 -0.024138208 -0.016445974 0.04612518 -0.25284985
-0.07927694 0.0132737 0.006494568 0.006437495 0.032475192 0.14713651 -0.17735006 -0.053569045
-0.15874085 0.22765039 0.096382506 -0.052783236 -0.24263029 0.15943529 0.22036071 0.2166041
-0.20503171 0.2665872 0.15601908 0.0025492995 -0.05045865 0.025036862 0.111693576 0.069084354
-0.03010893 0.21156143 -0.009686305 0.22230512 0.102498464 0.08446857 0.1171275 0.048936687
0.10353921 0.05231065 0.09238543 0.17512393 0.10298678 0.11743228 -0.29046202 0.009251089

dec_layers.0.mha.wq.bias f4 [128]
00000000: 6679 0cbe 7b20 52be 2eb8 e93d eb3c 12be
00000010: aed4 dd3c 2922 d33d a2d6 51be aed9 1d3e
00000020: 6f6a 813e 4078 df3d 9136 60be 1871 1b3e
00000030: 37a1 86bc 2d41 b5bd 4905 debc c916 0f3c
00000040: 243d a1bd 47fe 823e d3ec f73d b7aa 7fbc
00000050: d4e8 41bc 4c52 ffbd 2b00 78be f845 a33e
00000060: acf9 283d 94d1 b23d 6b0f 793d d134 10be
00000070: 6980 06bd 556a 48bc 2cfa d53d 049e b4bd
00000080: c04d 733c d7fc 553e f195 f2bc fd67 7f3c
00000090: f58c 0cbd 1686 83bc 6c87 e43c 5168 18bd
000000a0: 704c 25be 02fc 91bc 1c49 4c3d e1e1 7dbd
000000b0: 5b6c 06be 236e a4bd b28d 89bd e764 ea3d
000000c0: 3ab6 fb3d 5858 7dbe d21b 9cbd 5873 d8bc
000000d0: 2af3 24bc f8c4 f23c c535 92bd 8624 99be
000000e0: c6cf d9bd f749 cd3d 2b3d 343d 0f86 5d3e
000000f0: 10df 31bd e063 0fbe cf2e 883e fcad 21be
00000100: 3693 7abd 0cb5 0bbd c378 7f3e db27 4d3e
00000110: a446 9f3d 6efe 9c3d 7d6f 0f3e 7e5b 033e
00000120: 7de1 67be a589 93bd 5492 3abe 0a4f 703e
00000130: c16e 01be 4bc2 6e3e 5b77 283e ffa2 563d
00000140: 0792 5d3e cfbd 80be 4a26 4a3e 0a49 7e3e
00000150: eb82 833e 8329 b93c 24b1 74bb 8949 093d
00000160: b602 b93c 6e09 5fbd dece 213e bd9c 4bbe
00000170: 6bfc 963d fea3 693e 44da 99bc e2fd 05be
00000180: 5bd9 37bc 474b 69be 0f08 8bbc 6752 043c
00000190: 6bed 683e 8301 433e b5b7 bebd 5713 213e
000001a0: 5107 0d3b 72d6 253e 7b30 f4bc b160 2fbe
000001b0: b148 0bbd 6f4c dcbd c688 ff3c b902 95be
000001c0: 45cb b93c e277 8b3e f30d c53b 2433 a2be
000001d0: 8c4d 7cbd 39b2 67be 35c2 61bd d6e0 38be
000001e0: 501e 663d d345 84be ff46 2cbe 318d 89bd
000001f0: 9632 38be 6654 83bd a6be 9cbe 1c81 9bbd
-0.13718185 -0.20520203 0.114120826 -0.14281051 0.027078953 0.1030925 -0.20492032 0.1541507
0.25276515 0.10911608 -0.21895815 0.1517986 -0.016434295 -0.08850322 -0.02710213 0.00873346
-0.0787299 0.25584623 0.121057175 -0.015604666 -0.011835296 -0.12466869 -0.24218814 0.3188932
0.04125373 0.0873138 0.06080572 -0.14082648 -0.032837305 -0.012232383 0.10448107 -0.088192016
0.01485008 0.20897232 -0.029612513 0.015588758 -0.034314115 -0.016055148 0.027896605 -0.03720886
-0.1614244 -0.017820362 0.04987441 -0.061982993 -0.13127272 -0.080288194 -0.06716479 0.11445027
0.12290616 -0.24740732 -0.07622494 -0.026422188 -0.01006774 0.029634938 -0.07139162 -0.29910678
-0.10635333 0.10023873 0.044003647 0.2163317 -0.04342562 -0.14002943 0.26598212 -0.15789026
-0.061175548 -0.034108207 0.2494841 0.20034735 0.077771455 0.07665716 0.14007373 0.1282787
-0.2264461 -0.07203988 -0.18219882 0.23467651 -0.12639906 0.23316304 0.1645178 0.05240154
0.21637736 -0.25144812 0.19741169 0.2483255 0.2568582 0.022602802 -0.003733703 0.033517394
0.0225843 -0.054452352 0.1580157 -0.1988401 0.07372364 0.22816464 -0.018780835 -0.1308513
-0.011221255 -0.22782622 -0.016971616 0.008076287 0.22746818 0.19043545 -0.09312383 0.15730034
0.0021519253 0.16195086 -0.029808274 -0.17126729 -0.03400487 -0.10756766 0.031193148 -0.2910364
0.022679934 0.272399 0.0060136258 -0.31679642 -0.061597392 -0.2262658 -0.05511685 -0.18054518
0.056181252 -0.25834522 -0.16823958 -0.06716383 -0.17988047 -0.06412582 -0.30614203 -0.07592985

dec_layers.0.mha.wk.weight f4 [128, 32]
00000000: 8ddc 473e 27cd c63d 8031 7cbd 144a 6e3b
00000010: 0109 01be 884f 8c3d 20c9 073e 3565 3abe
00000020: ed90 9abe 5425 28be 5236 983d 21a9 95bd
00000030: b23c 903e 46b9 c3bd f5eb 83be c859 f63d
00000040: 98d7 dc3d 9af8 a23e 28dc 553e 5340 3abe
00000050: d874 d43d 661c adbd 70a6 6f3e 4aa5 173d
00000060: b7c5 82bd b571 f83d ae98 54be 1d5a 253e
00000070: 844b 51bd a29a 033d 18b8 423e 2c95 793e
00000080: eb24 863e 0d20 a23d aa2a b13c 201d 4abe
00000090: 3c1b 8a3e 22ef 3fbe a620 5b3e eac2 b93c
000000a0: 6064 25be a281 023e af44 76be 650b e03b
000000b0: 5f02 d03c 5c13 2fbe 69a9 31be 90b3 5d3b
000000c0: 09e1 803e 4490 473d a54d 2c3e ac2b fe3d
000000d0: a962 c33d e0e9 37be 2067 913e 9e9e 823e
000000e0: ade7 1e3e c59b 7f3d 47b5 e5bd ad89 c23d
000000f0: 8c26 783c 7a0e 9abc 89d6 5c3e 0e02 4f3e
00000100: 5c03 2cbd a56e 243e ea3f 043e 8619 463e
00000110: fcbd aebd 7c1e 2a3e 3cdc 6bbd fefb 66bc
00000120: 4458 213e e2c5 55be 98ba 8c3e 5013 1dbe
00000130: 187b 95be 22df 3abe fc58 fd3d 76de 79be
00000140: 7a01 88be 3579 f13d 1c26 87be 094d f63d
00000150: 61ce 9ebe 36a3 5a3e afad b73d d792 eebd
00000160: 63a7 423e 921e 9a3e 387f 113e 078f 313d
00000170: 1ba8 c0bc 56d2 143d 8c1c 97bd d2f4 8bbd
00000180: 32d6 133e 0be3 43be cba2 2ebe 81ac 4fbd
00000190: ea1e 38be 9d2e 88bd 0f68 553e cee8 42bd
000001a0: bc73 4abc 561a 08be 32d9 3c3e 8eb6 2c3e
000001b0: 513a ee3c 9ce5 bdbc 688d 96be e7e1 853e
000001c0: a780 28bd 5ec6 453e 8826 8a3e c311 8cbe
000001d0: d257 1d3e 5f67 8bbe 630b 0c3e e3c6 4f3e
000001e0: 2c06 863d b897 203e a468 febd c2a3 893e
000001f0: 3c45 03be 2c9f 98bd b40f 073c 9a0f 5d3e
00000200: f7cd 64bc 8989 5cbe 5160 433e 2384 a5bd
00000210: 773b 89be 40b4 8c3e c6b5 db3d e4c8 21be
00000220: 3d58 09be fff4 24be b22c 003d 43e0 a5bc
00000230: 67f2 bc3d 71cd e0bc adaa 9ebd c97a 853d
00000240: 920d e7bd 7b7c 243e eafa 153e efff b3bd
00000250: 2119 863d bad3 cabd af6b 5d3e e1ef 873e
00000260: 5b15 35bd 862f 853c 817d 13be 1d24 4b3d
00000270: 05b7 b83d 377a 32be 34a0 e43d cd5f f03d
00000280: d97a 9cbe 0c47 323e 2902 8d3e 2bff 803e
00000290: e8fe 06bd dd5b 793e f881 6bbe c3d8 8a3e
000002a0: 698d 3f3e 0fd8 4abd 9826 57be 1253 27be
000002b0: da13 49be ef38 25be 56f7 163e e22b 90bd
000002c0: 1c3b 28bd a71c 8ebd f39f 9cbd 033b f93d
000002d0: 6c75 71be 958c 143e bda6 11be 4345 18be
000002e0: 8338 bfbd 7797 c83d 183c c3bb 6574 27bc
000002f0: 778d 063e f3f6 913e 6bd5 9cbe bab3 92be
00000300: ba61 463e 3bbf b53d 9ac6 883e cb38 0e3e
00000310: 63c1 71be 7293 9f3d ea8b febc 35bf 6f3d
00000320: 265b 8cbd 94a4 bcbc 0d58 7d3e b820 e43c
00000330: f848 e33d e1bd 91bd 5cf3 863e 276c 49bd
00000340: 1e40 153e e6d2 f23d 21fb 183d fe98 4ebc
00000350: b1e8 803e 8a2f 4c3e d85f be3d 0bb0 1cbe
00000360: e2c1 26be fa7e 18be a89a 09be 876f 7cbe
00000370: 6b3c d63d e4b8 d1bd 2d8a e6bd 9d91 d03d
00000380: 66b1 313e be89 0b3e b44f 033c 5858 433e
00000390: 4c38 2dbe 9e30 2a3e a46a 3a3e bf56 50be
000003a0: 34ac 28be 826d 8fbd 170c f83d 76a0 04bd
000003b0: c137 e83d b81a 743d c2bc a23d eafa 53be
000003c0: 9e88 4dbd 5352 963d 924f 8b3e 38c1 40be
000003d0: 4d25 3bbc 9f51 68ba f7df 2a3e d786 eabd
000003e0: b703 413e 0924 dabc eb9c 15bd 6f25 19be
000003f0: 66b1 4ebd 8e74 8f3b 1cbb 22be 9521 91bc
0.19517727 0.097070985 -0.061570644 0.0036360072 -0.12601091 0.06851107 0.13260317 -0.1820267
-0.30188695 -0.1642049 0.07432236 -0.073076494 0.28171307 -0.095568225 -0.25765958 0.12028843
0.10783309 0.31830293 0.20884764 -0.181886 0.10373849 -0.08452682 0.23403335 0.037022866
-0.06385367 0.12131063 -0.20761368 0.16147657 -0.051097408 0.03212989 0.19015539 0.24373311
0.2620004 0.079162695 0.02162679 -0.19737673 0.26973903 -0.18743566 0.21399173 0.02267595
-0.16151571 0.12744763 -0.24049638 0.006837296 0.025391756 -0.17097229 -0.17349781 0.0033828951
0.25171688 0.048721567 0.16826494 0.124106735 0.09540302 -0.1796031 0.2839899 0.2551164
0.15518065 0.062404413 -0.112162165 0.09498916 0.015145909 -0.018805731 0.21566214 0.20215628
-0.04199539 0.16057833 0.12915006 0.19345674 -0.085323304 0.16613191 -0.05758308 -0.014098166
0.15756327 -0.20876268 0.2748611 -0.15339398 -0.29195476 -0.18249181 0.12370488 -0.24401268
-0.26563627 0.117906965 -0.26396263 0.12026412 -0.3101683 0.21351323 0.089686744 -0.11649101
0.19009165 0.30101448 0.14208686 0.043349292 -0.023517659 0.036333404 -0.07378492 -0.06833805
0.14437178 -0.19129579 -0.17054288 -0.050701622 -0.17980543 -0.06649516 0.20840476 -0.0475853
-0.012356695 -0.13291296 0.18442228 0.16866514 0.029080542 -0.023180775 -0.2940476 0.26148912
-0.041138317 0.19313952 0.26982522 -0.273573 0.15365532 -0.27227303 0.13676219 0.20290713
0.06544146 0.15682876 -0.12422302 0.2688275 -0.1281938 -0.074522346 0.00824349 0.21587983
-0.0139651215 -0.2153684 0.1907971 -0.08081844 -0.2680318 0.2748127 0.1072803 -0.1579929
-0.13412566 -0.16109084 0.031292625 -0.020248538 0.09225922 -0.027441712 -0.077473976 0.0651756
-0.11281885 0.1606311 0.14646497 -0.0878905 0.06547762 -0.09903665 0.2162311 0.265502
-0.04420982 0.016258013 -0.14403345 0.049594987 0.09019283 -0.17429434 0.11163369 0.117370225
-0.30562475 0.17409915 0.2754071 0.25194678 -0.03295794 0.2435145 -0.22998798 0.271185
0.18706287 -0.049522456 -0.21010816 -0.16340283 -0.19636479 -0.16135 0.14742789 -0.0703962
-0.041071996 -0.06939059 -0.076476954 0.12169459 -0.23579949 0.14506753 -0.14223762 -0.14870171
-0.09336951 0.097945146 -0.0059580915 -0.010220622 0.13139902 0.2850872 -0.30631575 -0.28652745
0.19373217 0.08874365 0.2671402 0.13888852 -0.23608927 0.07791795 -0.031072576 0.05853196
-0.06853323 -0.023027696 0.2474062 0.027847633 0.11097902 -0.07116295 0.26357543 -0.049175408
0.1457524 0.11856632 0.03734887 -0.012609718 0.2517753 0.1994001 0.092956245 -0.1530153
-0.16284898 -0.14892188 -0.13437903 -0.2465192 0.104607426 -0.10240343 -0.11256824 0.101840235
0.17352828 0.13626763 0.008014608 0.19076669 -0.16916007 0.16620108 0.18204743 -0.20345591
-0.1647194 -0.07003309 0.12111681 -0.03237959 0.11338759 0.059595793 0.07946159 -0.20701185
-0.050179116 0.07339921 0.27209145 -0.18823707 -0.011422467 -0.000886226 0.16686998 -0.114515
0.18849073 -0.026628511 -0.0365266 -0.14955686 -0.05046215 0.004377908 -0.15891689 -0.017716208

dec_layers.0.mha.wk.bias f4 [128]
00000000: a0c5 1abe bd66 4bbe 3b80 733d 2be8 763d
00000010: 6efd 503d 0a73 2a3e ad80 09be 4a44 6abd
00000020: de78 253e 4bb4 3dbd 3e1a 9ebd a011 54bd
00000030: 4831 233c 3382 be3d 32fe debd fae3 4f3d
00000040: 906f f73d 4810 d138 0830 34bd 8a4e 5dbd
00000050: a350 a83d c7ac 36bd 2409 20be 94df ba3d
00000060: 42c5 2b3c 9e53 0dbe aacd c63d f343 b83d
00000070: 20f2 d23d 0936 d0bd 0000 d6bd 8306 453e
00000080: 0182 24be 132a 9a3d d838 b93d c04b a0bd
00000090: 78a3 91bc 9740 ccbd 6e9b c03c a250 0c3c
000000a0: 9182 8abd db92 1b3e 75be f23d f22a 1c3e
000000b0: 32da 63bd 22c2 0b3e 86be ffbd 40f9 a73d
000000c0: 5dcb 333e 78e9 19be c1c7 00be d809 10be
000000d0: 084e 74bd 7c8b 853d 752a f7bd 122c 213d
000000e0: f16e 91bd dc80 e23d 0752 23bc 3ec8 6c3b
000000f0: 25ae a2bd 6b9f 9ebd 2edb 1a3d 27d0 c5bc
00000100: 6d3d 313e 14ba e1bd 4f8d 2c3e df82 3c3e
00000110: dcf8 143e c4d8 203d 90e8 0cbe a291 2bbe
00000120: 9ca4 513d 6e64 81bd bddf 813d 36f8 33bd
00000130: 82c6 a9bd a79e 013e e48e 473e 46f8 bf3b
00000140: 340d ecbc b067 38be 5d50 85bd 6d6d c6bd
00000150: e91d 19be f0c7 99bc 61b1 823c f010 ca3d
00000160: 9567 86bd 7f23 e6bd f3be ccbd 9f01 34be
00000170: 362e 3fbe 05a2 88bb eead 943b f409 34be
00000180: b529 71bd b738 2abe 1ad5 f6bd 2cbc ffbc
00000190: 07eb a73d fa5c 95bd 432d 993d d99c c6bd
000001a0: a256 34be b0fc b13d d82e 503e 0363 02be
000001b0: 5e14 36be 4a6d cbbd 0e70 133d 73d6 2dbe
000001c0: 987b edbd 03a7 913d ff0c 323c 0ef5 0bbd
000001d0: a4a0 c13d de8b db3d baa8 013e d02f 19be
000001e0: 9b4b 66bd 21f8 71bb 8b60 c43d f6be 83bd
000001f0: 3998 07be b3f6 193e 6b00 2bbe 4910 98bd
-0.1511445 -0.1986341 0.059448462 0.060280006 0.05102294 0.16645446 -0.13427992 -0.05719403
0.16159388 -0.04631452 -0.07719849 -0.05177462 0.00996048 0.09302177 -0.10888328 0.050754525
0.12081826 9.968929e-05 -0.04399112 -0.05402998 0.08218505 -0.044598367 -0.15628487 0.091246754
0.010484042 -0.13801429 0.09707196 0.08997335 0.10300088 -0.101665564 -0.10449219 0.19240765
-0.16065218 0.07527556 0.09044045 -0.07826948 -0.017778143 -0.09973257 0.023511615 0.008564146
-0.06763185 0.1519274 0.11852733 0.15250757 -0.05562801 0.13648275 -0.12487511 0.082018375
0.17558046 -0.15030468 -0.125762 -0.14066255 -0.05964473 0.06520745 -0.12068645 0.03934867
-0.071012385 0.11059734 -0.009968287 0.0036130096 -0.07943372 -0.0774525 0.037806682 -0.024147106
0.17308588 -0.1102182 0.1685078 0.18409298 0.14548057 0.039269224 -0.1376059 -0.16754773
0.051182374 -0.063179836 0.06341503 -0.043937884 -0.082898155 0.12658177 0.19488102 0.005858454
-0.02881489 -0.18008304 -0.06509469 -0.0968884 -0.14952816 -0.018772095 0.015953721 0.09866512
-0.065627255 -0.11237239 -0.09997358 -0.17578743 -0.18669972 -0.004169705 0.0045373356 -0.17581922
-0.058877666 -0.16623197 -0.12052365 -0.031217657 0.08199125 -0.072931245 0.07479336 -0.09697885
-0.17611173 0.086907744 0.2033037 -0.12733082 -0.17781207 -0.099329546 0.035995536 -0.16976337
-0.11595839 0.07111933 0.010867356 -0.03416925 0.09454468 0.10720037 0.1266202 -0.14959645
-0.056224447 -0.0036921578 0.095887266 -0.06432907 -0.13241662 0.15035515 -0.16699378 -0.07424981

dec_layers.0.mha.wv.weight f4 [128, 32]
00000000: 0187 7ebd 6e10 b03d 64b1 813e 433a 53be
00000010: 5bae 2d3d 5656 f9bd 89d3 713e 0667 a7bd
00000020: 2bcd ffbd 6015 073e 2d5f e73d ba12 3cbe
00000030: e326 0cbe 8edb 303e 2133 c83d 8b52 f1ba
00000040: 98fa e1bc 3298 803e 87f9 f3bd a826 453e
00000050: f0b0 943e bdd8 debd c722 99be e0f9 063e
00000060: 80bb 993e bd27 05bd 26ed 91bc fbb7 07ba
00000070: f3ea 6c3e a3d5 7bbe b06d 92bd ccb5 b0bd
00000080: f304 473e 1bc8 22be 4e4b 7cbd 6edc 83be
00000090: ea5e 963e 1602 17bc f807 a4bc 47e8 d63c
000000a0: a852 e73d 134a dcbd e1f0 5cbe 6242 be3d
000000b0: 5eee a83d 4ddb 763d 5ff1 3bbe 519e 293d
000000c0: 8a9b 063e 6450 c13d 8f52 853e 726f b6bc
000000d0: b88e 10bd 4751 8bbe 2641 69bc f539 d83d
000000e0: 5a49 a2bd 6d18 413e 8a4a 00be 1ed6 50be
000000f0: 0912 fbbc 8506 93be 5324 793d 1169 693d
00000100: ae8b bfbd d6da 4fbe 124f 62be 3323 ebbc
00000110: 03f6 6d3e 5afd a9bd 4a51 863e 14f5 07be
00000120: 856a c6bd da54 50be ac34 3fbd 424d e83d
00000130: c5b8 243d 14de a13d 4132 62be 971a 9dbd
00000140: ba75 3c3e a18a 9a3e c9aa 71bb b65d 233d
00000150: 4b1f 803e 9a3d 6dbe a3e8 093c 29c1 e03a
00000160: 7336 d33d 20a8 e3ba 26cd 52be a65f 063e
00000170: 455e 05be 54ca afbc 159a 9c3e 741b 133e
00000180: 3e38 ad3d 3960 8bbe 4a73 f93c 8684 a8bd
00000190: 792a eb3c 3153 50bb b0ac 4b3d 519d 06be
000001a0: 9a26 8dbc bd5d a0be 244c 37be db92 043e
000001b0: 8744 86bc c045 833c e68e 40be e31c 01be
000001c0: 0970 603d ce13 c2bd 3029 0fbe c1fb 43be
000001d0: a693 2c3e 8b92 91bc 80d0 86be 3838 893e
000001e0: 4d90 533c 784a 883e 5ab2 83be 9067 1e3d
000001f0: ee9b 91be 19bd 86bd 5d98 083e 0349 aebc
00000200: d106 d2bc 1b35 6c3e 6ad1 893c 73f4 12bd
00000210: 79af 10bd b6af eb3d 0e52 0e3e b562 43be
00000220: a4c8 63be c691 2a3d e005 f2bd 3302 483e
00000230: 42ea 81be 53d2 663e db43 95be b0ec d03d
00000240: a09e 823d aa54 833e 1628 233b 8bae acbd
00000250: 75ce 563e 5172 143c c74d 95bd 967d 56bb
00000260: 85c7 1c3e 948a 983e ee83 9fbe c6e4 e33c
00000270: 87a7 8cbe ad69 66be 4bc4 933d fba2 94bd
00000280: 6d46 bf3d 88e4 6fbe 783d 52be ddfa 2bbe
00000290: 7299 cb3d 8e51 99bc d6b6 66bd 5913 25be
000002a0: ab6b 99bd c8fc 55be 1a9e 36bd b944 403e
000002b0: 36cc bbbd 0971 863e df8a 2abe 9832 7ebe
000002c0: ff9c 933e 871d 28be 4082 b7bc f3e9 7cbd
000002d0: fa07 033e e4d0 34be 1993 f73c a2d5 313e
000002e0: 8bb4 983d 4523 163e bd88 25be d05f 4bbd
000002f0: c83e 70bc 5ee9 99be 724e 813e 0e42 ad3d
00000300: 411d 6cbe b9ae 5b3e 2e77 9c3e d4ba 2d3e
00000310: 9b43 253d 1dd2 d53c 8f3f 0d3d 1697 dc3c
00000320: 23f4 52be 68fd 143e 420c 183e f4bd 9ebe
00000330: f013 9cbe 10c7 843d c718 ad3c 6006 9ebc
00000340: 36e0 60be 83c1 25ba 5152 4d3e 11fc 7c3e
00000350: 27d3 9f3d 8825 9c3d dcd9 ccbc 2512 24bd
00000360: 53f8 993e b735 d5bc dcb6 d8bd ca6e 873d
00000370: 7766 3f3e 0426 37be 308a 8fbe 5240 223d
00000380: b324 353e 17f1 fdbd 6e73 2ebe e053 53bd
00000390: 6be7 763d d166 b0bc af41 2d3d a230 5d3c
000003a0: 85b8 d43d c072 5fbe 0b8b 67bd dc17 5abd
000003b0: 96b6 aebd 3fdf 0bbd 6202 b4bd a043 4ebe
000003c0: 8392 263e a522 2ebc a0a1 75be 6b16 6cbe
000003d0: 96d0 813d 3e2b 8dbe e720 8bbe cef4 a8bd
000003e0: 97a1 0abe f915 4e3e 3ae1 9fbe f84e 41be
000003f0: 0622 04be 1f56 6dbe 8806 833e c2dc 833d
-0.06214047 0.08596884 0.2533065 -0.20627694 0.042402606 -0.121746704 0.2361585 -0.08173947
-0.124903046 0.13191748 0.1129745 -0.18366519 -0.13686709 0.17271253 0.09775377 -0.001841144
-0.027585313 0.25116116 -0.11912828 0.19253027 0.29041243 -0.10881183 -0.29909346 0.13181257
0.30025864 -0.0325086 -0.017813276 -0.00051772565 0.23136501 -0.24593215 -0.071498275 -0.08628425
0.19435482 -0.15896647 -0.061595254 -0.25754112 0.2936929 -0.009216806 -0.020023331 0.026233805
0.11295062 -0.10756316 -0.21576263 0.09290005 0.0824859 0.060267735 -0.18353795 0.041410748
0.13145271 0.094391614 0.2603955 -0.022269938 -0.035292357 -0.27210447 -0.014236724 0.105579294
-0.07924147 0.18856974 -0.12528434 -0.20394179 -0.030648248 -0.28715912 0.060825657 0.056984965
-0.09352814 -0.20298323 -0.22100475 -0.028703308 0.23238377 -0.08300276 0.26233894 -0.13277084
-0.09688286 -0.20344868 -0.04668109 0.11342861 0.040215272 0.07903686 -0.22089483 -0.07671087
0.18404284 0.3018389 -0.0036875478 0.03988429 0.25023875 -0.2316803 0.008417281 0.001714741
0.1031312 -0.0017368831 -0.2058607 0.13122424 -0.13024242 -0.021458782 0.30586305 0.14365941
0.08457993 -0.2722185 0.030450482 -0.08228402 0.028706776 -0.0031787867 0.049725235 -0.13145949
-0.01723032 -0.31321517 -0.17900139 0.12946646 -0.016390098 0.01602447 -0.18804511 -0.12608676
0.054794345 -0.09476434 -0.13980556 -0.19139005 0.16853198 -0.017770072 -0.26330948 0.26800704
0.012912822 0.26619315 -0.2572201 0.038672984 -0.28439277 -0.06579036 0.13339372 -0.02127505
-0.025638016 0.23067133 0.01682349 -0.035877656 -0.035323594 0.115081236 0.13898489 -0.19080622
-0.22244507 0.041642927 -0.11817527 0.19532089 -0.25374037 0.2254117 -0.29153332 0.102013946
0.063779116 0.2565053 0.002489572 -0.08431729 0.20977195 0.009060458 -0.072902255 -0.0032728664
0.15310486 0.29793227 -0.31155342 0.027819049 -0.27471563 -0.2250125 0.07215174 -0.072576486
0.093396045 -0.23427022 -0.20531261 -0.16794915 0.09941377 -0.018715646 -0.05632671 -0.16120662
-0.07491239 -0.2089721 -0.04458437 0.18776216 -0.091698095 0.26258114 -0.16654538 -0.24823987
0.28830716 -0.16417514 -0.022400975 -0.06174655 0.12796012 -0.1765781 0.030221509 0.1736665
0.07456311 0.14661892 -0.16165443 -0.04965192 -0.014663406 -0.30060858 0.25255162 0.084598646
-0.23058034 0.2145337 0.30559677 0.169658 0.040347677 0.026101166 0.034484442 0.026927512
-0.20600943 0.14549792 0.14848426 -0.31004298 -0.3048396 0.06483281 0.021129979 -0.01929015
-0.2196053 -0.0006323086 0.20050932 0.2470553 0.07803946 0.07624346 -0.025006227 -0.040056366
0.3007227 -0.02602659 -0.10581753 0.06612928 0.18691431 -0.17885596 -0.28035116 0.039612122
0.17689781 -0.123995 -0.1703622 -0.05159366 0.06027929 -0.021533402 0.04229897 0.0135003645
0.10386757 -0.21821117 -0.056529086 -0.05324541 -0.08530919 -0.03414845 -0.08789517 -0.20142984
0.16266827 -0.010628377 -0.23987436 -0.23055427 0.06338613 -0.27572054 -0.2717354 -0.08249818
-0.13538204 0.2012557 -0.31226522 -0.1887778 -0.12903604 -0.23177384 0.2559092 0.064385906

dec_layers.0.mha.wv.bias f4 [128]
00000000: 1489 7c3d 3b88 4ebe 26af 7bbe a123 08be
00000010: 83be 1b3c c484 243b 6e4d 043d 8028 75bd
00000020: 57af 21be 177b 8bbe c6a2 3bbe b5bf 0d3d
00000030: 5296 9bbd 9a3d 743d a349 0cbe f3d9 403d
00000040: f0b6 d63d eb9a 6dbe 9069 c9bc 8066 4dbd
00000050: f9df 163e 4603 773e 868f e43d b1e4 48be
00000060: efd7 c43c 429d 5c3e 9700 99be 5f04 93be
00000070: 4de5 c43d cad8 02be 2b93 f53c a6c5 543e
00000080: 3dbb 9b3e ac27 803c 2ba7 d43d 9b3d 0c3e
00000090: c130 a3bc 31f5 df3d 61fe b43b e07e 0abe
000000a0: fb7d 8cbc 36af ddbd 3ab9 27be c4d9 08bc
000000b0: cff5 6cbe 343b fc3d fff5 6cbe 8e63 27be
000000c0: 6c95 41be 90fc 4c3e ff20 033e c615 463e
000000d0: 3172 ca3c e74b c33d b5a0 5e3d 5a82 85be
000000e0: 4208 39bd 302f 9b3b 21c4 4abe 6623 483e
000000f0: 7782 9cbe 4ca7 d13d 1de4 0d3d 9acc 3bbe
00000100: f564 7c3e 479c b13c 6d53 873e 5f9d ee3b
00000110: 9178 2e3d ed30 22be 35be c33c 2343 c63d
00000120: d227 f63d 8de6 f2bc 7d38 893e 4ca7 56be
00000130: 25be 14bd 7435 2b3d 76e6 773d cf1b 40be
00000140: b41e b83c eed1 b8bb ef67 0bbd f5b0 533d
00000150: 8656 e73d a33b 89bd afb1 3a3c b508 1c3d
00000160: c75c 133d ac66 0bbd d6b5 31be fd67 f53c
00000170: 14aa d13d 10af 22be c28f 8ebe 59ae 9e3d
00000180: 3175 bd3c 1707 c83d 9c03 293e de31 94be
00000190: c5d4 c3bd ab2d 893e af3f 0bbe a1c9 e5bb
000001a0: a9bf c6bc 5321 4aba 1e70 a43b 45cd 6c3d
000001b0: b35e 68bd 20b0 b5bd b928 693c e94b 9abe
000001c0: d7e8 dfbb 63eb 85be dff1 853e 9280 7abb
000001d0: 97e6 d13c da37 44be a0f9 99be 6b44 1c3d
000001e0: 8d8b 88be 8932 98be 49bd 5dbe b19e 1cbe
000001f0: f2e7 adbc 39e2 e1bc 1569 553e 924c 6cbe
0.061654165 -0.20169155 -0.24578533 -0.13294841 0.009505871 0.0025103549 0.032300405 -0.059853077
-0.15789543 -0.27242348 -0.18323812 0.034606654 -0.07597031 0.05962906 -0.13699965 0.047082853
0.10484111 -0.23203628 -0.024586469 -0.05014658 0.14733876 0.24122342 0.111601874 -0.19618489
0.024028746 0.21544364 -0.29883263 -0.28714272 0.09614048 -0.12778011 0.029977402 0.20778522
0.3041629 0.015643917 0.10383447 0.13695376 -0.019920709 0.109354384 0.0055234884 -0.13524961
-0.017149916 -0.108244345 -0.16379252 -0.008352701 -0.23140644 0.123159796 -0.23140715 -0.16346571
-0.18904656 0.2001822 0.12805556 0.19344243 0.024712654 0.095359616 0.05435248 -0.26076013
-0.04517389 0.00473585 -0.1980138 0.19544753 -0.30568287 0.102369875 0.034641374 -0.18339768
0.24647887 0.021680964 0.26430836 0.0072819437 0.04259545 -0.15838976 0.023894409 0.09680774
0.12019314 -0.02965095 0.2680091 -0.20962256 -0.03631415 0.041799024 0.06052252 -0.18760608
0.022475578 -0.00564026 -0.034034666 0.05168243 0.112958 -0.06700828 0.011394902 0.03809424
0.03597715 -0.034033462 -0.17354521 0.029956812 0.10237518 -0.15887094 -0.27844054 0.07748098
0.02312717 0.09766977 0.16505283 -0.28944296 -0.09562067 0.26792654 -0.13598512 -0.0070125614
-0.024261313 -0.0007710654 0.005018248 0.057812948 -0.056730937 -0.08871484 0.0142309 -0.3013604
-0.0068331766 -0.26156148 0.26161095 -0.0038223607 0.02562265 -0.1916193 -0.3007326 0.038151186
-0.2666897 -0.29726055 -0.21654238 -0.15294911 -0.021228764 -0.027573692 0.20840867 -0.23076084
